…
kernel_size=3, strides=2, padding=&#39;same&#39;)(x) x = LeakyReLU()(x) x = Flatten()(x) x = Dense(128)(x) x = LeakyReLU()(x) x = Dropout(rate=0.5)(x) x = Dense(NUM_CLASSES)(x) output_layer = Activation(&#39;softmax&#39;)(x) model = Model(input_layer, output_layer) . model.summary() . Model: &#34;model&#34; _________________________________________________________________ Layer (type) Output Shape Param # ================================================================= input_1 (InputLayer) [(None, 32, 32, 3)] 0 _________________________________________________________________ conv2d (Conv2D) (None, 32, 32, 32) 896 _________________________________________________________________ batch_normalization (BatchNo (None, 32, 32, 32) 128 _________________________________________________________________ leaky_re_lu (LeakyReLU) (None, 32, 32, 32) 0 _________________________________________________________________ conv2d_1 (Conv2D) (None, 16, 16, 32) 9248 _________________________________________________________________ leaky_re_lu_1 (LeakyReLU) (None, 16, 16, 32) 0 _________________________________________________________________ conv2d_2 (Conv2D) (None, 16, 16, 64) 18496 _________________________________________________________________ leaky_re_lu_2 (LeakyReLU) (None, 16, 16, 64) 0 _________________________________________________________________ conv2d_3 (Conv2D) (None, 8, 8, 64) 36928 _________________________________________________________________ leaky_re_lu_3 (LeakyReLU) (None, 8, 8, 64) 0 _________________________________________________________________ flatten (Flatten) (None, 4096) 0 _________________________________________________________________ dense (Dense) (None, 128) 524416 _________________________________________________________________ leaky_re_lu_4 (LeakyReLU) (None, 128) 0 _________________________________________________________________ dropout (Dropout) (None, 128) 0 _________________________________________________________________ dense_1 (Dense) (None, 10) 1290 _________________________________________________________________ activation (Activation) (None, 10) 0 ================================================================= Total params: 591,402 Trainable params: 591,338 Non-trainable params: 64 _________________________________________________________________ . Train . model.compile(loss=&#39;categorical_crossentropy&#39;, optimizer=Adam(lr=0.0005), metrics=[&#39;accuracy&#39;]) . /usr/local/lib/python3.7/dist-packages/keras/optimizer_v2/optimizer_v2
…
on=&#39;relu&#39;, padding=&#39;same&#39;)) model.add(MaxPool2D(pool_size=(2, 2))) model.add(Dropout(0.25)) model.add(Flatten()) model.add(Dense(512, activation=&#39;relu&#39;)) model.add(Dropout(0.5)) model.add(Dense(10, activation=&#39;softmax&#39;)) model.compile(loss=&#39;categorical_crossentropy&#39;, optimizer=&#39;adam&#39;, metrics=[&#39;accuracy&#39;]) . model.summary() . Model: &#34;sequential_9&#34; _________________________________________________________________ Layer (type) Output Shape Param # ================================================================= conv2d_167 (Conv2D) (None, 32, 32, 32) 896 _________________________________________________________________ conv2d_168 (Conv2D) (None, 32, 32, 32) 9248 _________________________________________________________________ max_pooling2d_66 (MaxPooling (None, 16, 16, 32) 0 _________________________________________________________________ dropout_120 (Dropout) (None, 16, 16, 32) 0 _________________________________________________________________ conv2d_169 (Conv2D) (None, 16, 16, 64) 18496 _________________________________________________________________ conv2d_170 (Conv2D) (None, 16, 16, 64) 36928 _________________________________________________________________ max_pooling2d_67 (MaxPooling (None, 8, 8, 64) 0 _________________________________________________________________ dropout_121 (Dropout) (None, 8, 8, 64) 0 _________________________________________________________________ flatten_34 (Flatten) (None, 4096) 0 _________________________________________________________________ dense_74 (Dense) (None, 512) 2097664 _________________________________________________________________ dropout_122 (Dropout) (None, 512) 0 _________________________________________________________________ dense_75 (Dense) (None, 10) 5130 ================================================================= Total params: 2,168,362 Trainable params: 2,168,362 Non-trainable params: 0 _________________________________________________________________ . hist = model.fit(X_train, y_train, validation_data=(X_test, y_test), epochs = 20 ,batch_size=32) . Epoch 1/20 1563/1563 [==============================] - 24s 15ms/step - loss: 1.4682 - acc
…
(x) x = MaxPool2D(pool_size=(2, 2))(x) x = Flatten()(x) x = Dense(256)(x) x = Activation(&#39;relu&#39;)(x) x = Dropout(rate=0.5)(x) x = Dense(NUM_CLASSES)(x) output_layer_n = Activation(&#39;softmax&#39;)(x) model_n = Model(input_layer_n, output_layer_n) . model_n.summary() . Model: &#34;model_28&#34; _________________________________________________________________ Layer (type) Output Shape Param # ================================================================= input_37 (InputLayer) [(None, 32, 32, 3)] 0 _________________________________________________________________ conv2d_155 (Conv2D) (None, 32, 32, 32) 896 _________________________________________________________________ conv2d_156 (Conv2D) (None, 32, 32, 32) 9248 _________________________________________________________________ dropout_111 (Dropout) (None, 32, 32, 32) 0 _________________________________________________________________ max_pooling2d_60 (MaxPooling (None, 16, 16, 32) 0 _________________________________________________________________ conv2d_157 (Conv2D) (None, 16, 16, 64) 18496 _________________________________________________________________ conv2d_158 (Conv2D) (None, 16, 16, 64) 36928 _________________________________________________________________ dropout_112 (Dropout) (None, 16, 16, 64) 0 _________________________________________________________________ max_pooling2d_61 (MaxPooling (None, 8, 8, 64) 0 _________________________________________________________________ flatten_31 (Flatten) (None, 4096) 0 _________________________________________________________________ dense_68 (Dense) (None, 256) 1048832 _________________________________________________________________ activation_96 (Activation) (None, 256) 0 _________________________________________________________________ dropout_113 (Dropout) (None, 256) 0 _________________________________________________________________ dense_69 (Dense) (None, 10) 2570 _________________________________________________________________ activation_97 (Activation) (None, 10) 0 ================================================================= Total params: 1,116,970 Trainable params: 1,116,970 Non-trainable params: 0 _________________________________________________________________ . model_n.compile(loss=&#39;categorical_crossentropy&#39;, optimizer=Adam(learning_rate = 0.001), metrics=[&#39;accuracy&#39;]) . history = model_n.fit(X_train, y_train, batch_size = 32, epoc
…
